Total trainable parameters: 1457104
Learning Rate: 0.0007 , Epochs:  80 , Batch Size:  8 , Weight decay:  0.0001
MobileNet_UNet_CBAM(
  (enc1): EncoderBlock(
    (conv1): DepthwiseSeparableConv(
      (depthwise): Conv2d(3, 3, kernel_size=(3, 3), stride=(1, 1), padding=(1, 1), groups=3, bias=False)
      (pointwise): Conv2d(3, 32, kernel_size=(1, 1), stride=(1, 1), bias=False)
      (bn): BatchNorm2d(32, eps=1e-05, momentum=0.1, affine=True, track_running_stats=True)
      (leaky_relu): LeakyReLU(negative_slope=0.01, inplace=True)
    )
    (conv2): DepthwiseSeparableConv(
      (depthwise): Conv2d(32, 32, kernel_size=(3, 3), stride=(1, 1), padding=(1, 1), groups=32, bias=False)
      (pointwise): Conv2d(32, 32, kernel_size=(1, 1), stride=(1, 1), bias=False)
      (bn): BatchNorm2d(32, eps=1e-05, momentum=0.1, affine=True, track_running_stats=True)
      (leaky_relu): LeakyReLU(negative_slope=0.01, inplace=True)
    )
    (conv3): Conv2d(32, 32, kernel_size=(3, 3), stride=(1, 1), padding=(2, 2), dilation=(2, 2), bias=False)
    (downsample): MaxPool2d(kernel_size=2, stride=2, padding=0, dilation=1, ceil_mode=False)
  )
  (enc2): EncoderBlock(
    (conv1): DepthwiseSeparableConv(
      (depthwise): Conv2d(32, 32, kernel_size=(3, 3), stride=(1, 1), padding=(1, 1), groups=32, bias=False)
      (pointwise): Conv2d(32, 64, kernel_size=(1, 1), stride=(1, 1), bias=False)
      (bn): BatchNorm2d(64, eps=1e-05, momentum=0.1, affine=True, track_running_stats=True)
      (leaky_relu): LeakyReLU(negative_slope=0.01, inplace=True)
    )
    (conv2): DepthwiseSeparableConv(
      (depthwise): Conv2d(64, 64, kernel_size=(3, 3), stride=(1, 1), padding=(1, 1), groups=64, bias=False)
      (pointwise): Conv2d(64, 64, kernel_size=(1, 1), stride=(1, 1), bias=False)
      (bn): BatchNorm2d(64, eps=1e-05, momentum=0.1, affine=True, track_running_stats=True)
      (leaky_relu): LeakyReLU(negative_slope=0.01, inplace=True)
    )
    (conv3): Conv2d(64, 64, kernel_size=(3, 3), stride=(1, 1), padding=(2, 2), dilation=(2, 2), bias=False)
    (downsample): MaxPool2d(kernel_size=2, stride=2, padding=0, dilation=1, ceil_mode=False)
  )
  (enc3): EncoderBlock(
    (conv1): DepthwiseSeparableConv(
      (depthwise): Conv2d(64, 64, kernel_size=(3, 3), stride=(1, 1), padding=(1, 1), groups=64, bias=False)
      (pointwise): Conv2d(64, 128, kernel_size=(1, 1), stride=(1, 1), bias=False)
      (bn): BatchNorm2d(128, eps=1e-05, momentum=0.1, affine=True, track_running_stats=True)
      (leaky_relu): LeakyReLU(negative_slope=0.01, inplace=True)
    )
    (conv2): DepthwiseSeparableConv(
      (depthwise): Conv2d(128, 128, kernel_size=(3, 3), stride=(1, 1), padding=(1, 1), groups=128, bias=False)
      (pointwise): Conv2d(128, 128, kernel_size=(1, 1), stride=(1, 1), bias=False)
      (bn): BatchNorm2d(128, eps=1e-05, momentum=0.1, affine=True, track_running_stats=True)
      (leaky_relu): LeakyReLU(negative_slope=0.01, inplace=True)
    )
    (conv3): Conv2d(128, 128, kernel_size=(3, 3), stride=(1, 1), padding=(2, 2), dilation=(2, 2), bias=False)
    (downsample): MaxPool2d(kernel_size=2, stride=2, padding=0, dilation=1, ceil_mode=False)
  )
  (enc4): EncoderBlock(
    (conv1): DepthwiseSeparableConv(
      (depthwise): Conv2d(128, 128, kernel_size=(3, 3), stride=(1, 1), padding=(1, 1), groups=128, bias=False)
      (pointwise): Conv2d(128, 256, kernel_size=(1, 1), stride=(1, 1), bias=False)
      (bn): BatchNorm2d(256, eps=1e-05, momentum=0.1, affine=True, track_running_stats=True)
      (leaky_relu): LeakyReLU(negative_slope=0.01, inplace=True)
    )
    (conv2): DepthwiseSeparableConv(
      (depthwise): Conv2d(256, 256, kernel_size=(3, 3), stride=(1, 1), padding=(1, 1), groups=256, bias=False)
      (pointwise): Conv2d(256, 256, kernel_size=(1, 1), stride=(1, 1), bias=False)
      (bn): BatchNorm2d(256, eps=1e-05, momentum=0.1, affine=True, track_running_stats=True)
      (leaky_relu): LeakyReLU(negative_slope=0.01, inplace=True)
    )
    (conv3): Conv2d(256, 256, kernel_size=(3, 3), stride=(1, 1), padding=(2, 2), dilation=(2, 2), bias=False)
    (downsample): MaxPool2d(kernel_size=2, stride=2, padding=0, dilation=1, ceil_mode=False)
  )
  (bottleneck): BottleneckWithCBAM(
    (conv): DepthwiseSeparableConv(
      (depthwise): Conv2d(256, 256, kernel_size=(3, 3), stride=(1, 1), padding=(1, 1), groups=256, bias=False)
      (pointwise): Conv2d(256, 512, kernel_size=(1, 1), stride=(1, 1), bias=False)
      (bn): BatchNorm2d(512, eps=1e-05, momentum=0.1, affine=True, track_running_stats=True)
      (leaky_relu): LeakyReLU(negative_slope=0.01, inplace=True)
    )
    (cbam): CBAM(
      (avg_pool): AdaptiveAvgPool2d(output_size=1)
      (max_pool): AdaptiveMaxPool2d(output_size=1)
      (mlp): Sequential(
        (0): Linear(in_features=512, out_features=32, bias=False)
        (1): ReLU(inplace=True)
        (2): Linear(in_features=32, out_features=512, bias=False)
      )
      (sigmoid_channel): Sigmoid()
      (conv_spatial): Conv2d(2, 1, kernel_size=(9, 9), stride=(1, 1), padding=(4, 4), bias=False)
      (sigmoid_spatial): Sigmoid()
    )
  )
  (dec4): DecoderBlock(
    (upsample): Upsample(scale_factor=2.0, mode='bilinear')
    (conv1): DepthwiseSeparableConv(
      (depthwise): Conv2d(768, 768, kernel_size=(3, 3), stride=(1, 1), padding=(1, 1), groups=768, bias=False)
      (pointwise): Conv2d(768, 256, kernel_size=(1, 1), stride=(1, 1), bias=False)
      (bn): BatchNorm2d(256, eps=1e-05, momentum=0.1, affine=True, track_running_stats=True)
      (leaky_relu): LeakyReLU(negative_slope=0.01, inplace=True)
    )
    (conv2): DepthwiseSeparableConv(
      (depthwise): Conv2d(256, 256, kernel_size=(3, 3), stride=(1, 1), padding=(1, 1), groups=256, bias=False)
      (pointwise): Conv2d(256, 256, kernel_size=(1, 1), stride=(1, 1), bias=False)
      (bn): BatchNorm2d(256, eps=1e-05, momentum=0.1, affine=True, track_running_stats=True)
      (leaky_relu): LeakyReLU(negative_slope=0.01, inplace=True)
    )
  )
  (dec3): DecoderBlock(
    (upsample): Upsample(scale_factor=2.0, mode='bilinear')
    (conv1): DepthwiseSeparableConv(
      (depthwise): Conv2d(384, 384, kernel_size=(3, 3), stride=(1, 1), padding=(1, 1), groups=384, bias=False)
      (pointwise): Conv2d(384, 128, kernel_size=(1, 1), stride=(1, 1), bias=False)
      (bn): BatchNorm2d(128, eps=1e-05, momentum=0.1, affine=True, track_running_stats=True)
      (leaky_relu): LeakyReLU(negative_slope=0.01, inplace=True)
    )
    (conv2): DepthwiseSeparableConv(
      (depthwise): Conv2d(128, 128, kernel_size=(3, 3), stride=(1, 1), padding=(1, 1), groups=128, bias=False)
      (pointwise): Conv2d(128, 128, kernel_size=(1, 1), stride=(1, 1), bias=False)
      (bn): BatchNorm2d(128, eps=1e-05, momentum=0.1, affine=True, track_running_stats=True)
      (leaky_relu): LeakyReLU(negative_slope=0.01, inplace=True)
    )
  )
  (dec2): DecoderBlock(
    (upsample): Upsample(scale_factor=2.0, mode='bilinear')
    (conv1): DepthwiseSeparableConv(
      (depthwise): Conv2d(192, 192, kernel_size=(3, 3), stride=(1, 1), padding=(1, 1), groups=192, bias=False)
      (pointwise): Conv2d(192, 64, kernel_size=(1, 1), stride=(1, 1), bias=False)
      (bn): BatchNorm2d(64, eps=1e-05, momentum=0.1, affine=True, track_running_stats=True)
      (leaky_relu): LeakyReLU(negative_slope=0.01, inplace=True)
    )
    (conv2): DepthwiseSeparableConv(
      (depthwise): Conv2d(64, 64, kernel_size=(3, 3), stride=(1, 1), padding=(1, 1), groups=64, bias=False)
      (pointwise): Conv2d(64, 64, kernel_size=(1, 1), stride=(1, 1), bias=False)
      (bn): BatchNorm2d(64, eps=1e-05, momentum=0.1, affine=True, track_running_stats=True)
      (leaky_relu): LeakyReLU(negative_slope=0.01, inplace=True)
    )
  )
  (dec1): DecoderBlock(
    (upsample): Upsample(scale_factor=2.0, mode='bilinear')
    (conv1): DepthwiseSeparableConv(
      (depthwise): Conv2d(96, 96, kernel_size=(3, 3), stride=(1, 1), padding=(1, 1), groups=96, bias=False)
      (pointwise): Conv2d(96, 32, kernel_size=(1, 1), stride=(1, 1), bias=False)
      (bn): BatchNorm2d(32, eps=1e-05, momentum=0.1, affine=True, track_running_stats=True)
      (leaky_relu): LeakyReLU(negative_slope=0.01, inplace=True)
    )
    (conv2): DepthwiseSeparableConv(
      (depthwise): Conv2d(32, 32, kernel_size=(3, 3), stride=(1, 1), padding=(1, 1), groups=32, bias=False)
      (pointwise): Conv2d(32, 32, kernel_size=(1, 1), stride=(1, 1), bias=False)
      (bn): BatchNorm2d(32, eps=1e-05, momentum=0.1, affine=True, track_running_stats=True)
      (leaky_relu): LeakyReLU(negative_slope=0.01, inplace=True)
    )
  )
  (final_conv): Conv2d(32, 19, kernel_size=(1, 1), stride=(1, 1))
)
Epoch [1/80], Training Loss: 2.1501, Training Accuracy: 0.5961,Val Loss: 1.7242, Val Accuracy: 0.7389, Val F-score: 0.1626
Epoch [2/80], Training Loss: 1.5407, Training Accuracy: 0.7898,Val Loss: 1.4669, Val Accuracy: 0.8129, Val F-score: 0.2615
Epoch [3/80], Training Loss: 1.4251, Training Accuracy: 0.8212,Val Loss: 1.3886, Val Accuracy: 0.8372, Val F-score: 0.3338
…
